log1/bset_model_ucl_test.pth (torch_old, 868103 bytes, 32 tensors)

scale1.0.0.weight f4 [64, 5, 3, 3]
0	0xbcd3d5b4	-0.025858738
1	0xbda8b4bb	-0.082375966
2	0xbd0a14f9	-0.033711407
3	0xbd2b9dea	-0.041898645
4	0xbdf088f6	-0.11744873
5	0xbcaa12d8	-0.020760939
6	0x3c30d86a	0.010793785
7	0x3980b710	0.00024550455
8	0x3d057485	0.032581825
9	0x3bd92271	0.00662642
10	0x3cb8b0b0	0.022545189
11	0x3c3e496b	0.011614184
12	0x3cd40ebb	0.02588593
13	0x3d283b00	0.04107189
14	0x3cbb9819	0.022899674
15	0x3cb9506d	0.022621358
16	0x3d079573	0.03310151
17	0x3c6d505c	0.014484491
18	0xbd7e738f	-0.062121924
19	0xbd67cc58	-0.05659136
20	0xbd22734d	-0.03966074
21	0xbd6d93db	-0.058002334
22	0xbd530320	-0.051516652
23	0xbd1769f2	-0.03696627
24	0xbcc06422	-0.023485247
25	0xbc8c9d90	-0.017164975
26	0xbb62c830	-0.0034604184
27	0xbba94053	-0.0051651387
28	0xbb1b5cc9	-0.0023706427
29	0xbbe5d107	-0.0070134434
30	0xbbb5f3d4	-0.005552748
31	0xbb09a5fc	-0.0021003475
32	0xbc0d0747	-0.008607692
33	0xbc1756b2	-0.009236978
34	0xbbcdea08	-0.006284002
35	0xbc3b10ce	-0.011417581
36	0xbbc83d5d	-0.0061108307
37	0xbba9c9d7	-0.005181532
38	0xbc0d1996	-0.008612057
39	0x3a0f5685	0.00054679095
40	0xb9584966	-0.00020626708
41	0xbbde8786	-0.006791058
42	0xbb3572fb	-0.0027686942
43	0xbb021a4f	-0.0019852107
44	0xbc1b5381	-0.009480358
45	0xbd0e1a9f	-0.034693357
46	0x3c8eaed7	0.017417355
47	0xbd44f8cb	-0.04808883
48	0x3cbc41c6	0.022980582
49	0x3e1fca94	0.15604621
50	0xbc99baf0	-0.018765897
51	0xbd09e10b	-0.033661883
52	0x3c7b971d	0.015355852
53	0xbd592150	-0.053010285
54	0x3c99c337	0.018769844
55	0x3a56ccdd	0.0008193979
56	0x3c611406	0.013737684
57	0x3c53c16e	0.012924535
58	0xbbce2b76	-0.006291802
59	0x3c84daaa	0.016217548
60	0x3b5541a3	0.0032540343
61	0xbc087e51	-0.008330897
62	0xbb0489e5	-0.0020223793
63	0x3c19a307	0.009377248
64	0xb9b333d8	-0.00034180167
65	0x3c53bb25	0.012923037
66	0xbb1cb4ae	-0.0023911404
67	0xbc445bf9	-0.011984819
68	0x3bead8b7	0.0071669477
69	0xbb675b8c	-0.003530237
70	0xbc28dbfe	-0.0103063565
71	0x3b738a7a	0.0037161396
72	0xb9c08616	-0.00036720996
73	0x3b9abe74	0.004722411
74	0x3c52002d	0.012817425
75	0x3ab6d8b9	0.0013950086
76	0x3bbdfe8c	0.0057981666
77	0x3c39cd7d	0.011340496
78	0x3c097272	0.008389102
79	0x3c49b1bd	0.0123104425
80	0x3c8a9967	0.016918851
81	0x3bd058a2	0.006358222
82	0x3bc6ff3f	0.006072908
83	0x3c3e081b	0.011598612
84	0xbc011c48	-0.007880278
85	0xbbf3b685	-0.0074375295
86	0xbaf2c966	-0.0018523156
87	0xb97475ae	-0.00023313492
88	0xbaa4f66e	-0.0012585649
89	0x3adf1a4b	0.0017021386
90	0x3cc273d2	0.023736868
91	0x3ccb54f8	0.02482079
92	0xbd332581	-0.04373694
93	0x3dc6b6fe	0.09702872
94	0x3dbf3601	0.09336472
95	0xbd773b8f	-0.060359534
96	0xbbd3b89c	-0.006461216
97	0xbcf8c31c	-0.030366473
98	0xbd90b283	-0.070652984
99	0x3ba20014	0.004943857
100	0x3ab578dd	0.0013845224
101	0x3bd7094f	0.006562389
102	0xbafae4e4	-0.0019141701
103	0xba5cf817	-0.0008429302
104	0x3c3f307d	0.011669275
105	0xbb5049fb	-0.0031782377
106	0x3a4fbbda	0.00079244154
107	0x3c14160a	0.009038458
108	0xbaeb3d7f	-0.0017947404
109	0xbaa6c66e	-0.0012723932
110	0x3c07f8db	0.008299078
111	0xbb15fc53	-0.0022885993
112	0xbb983bbd	-0.0046457932
113	0x3b5dc5ea	0.003383989
114	0xbbe65bb9	-0.007029977
115	0xbc0927f9	-0.008371347
116	0xbab8ded4	-0.0014104494
117	0xbc38488e	-0.011247767
118	0xbc1d0fbe	-0.009586273
119	0x3b9327a1	0.004490808
120	0xbc3b2d81	-0.011424423
121	0xbc43ddd8	-0.011954747
122	0x3bcb824a	0.0062106
123	0xbba7aed8	-0.0051172785
124	0xbba88d2f	-0.0051437835
125	0x3c3c08a0	0.011476666
126	0xbbd213f6	-0.006411071
127	0xbbefd4ce	-0.0073190695
128	0x3c1ed062	0.009693237
129	0xbc1770b3	-0.009243178
130	0xbc115997	-0.008871458
131	0x3bceccf3	0.006311053
132	0xbb4188ac	-0.0029530926
133	0xbbc5fa5d	-0.0060418085
134	0x3c4dd917	0.012563965
135	0xbcc6dbe3	-0.024274772
136	0xbd84341c	-0.064552516
137	0xbc98c57f	-0.018648861
138	0xbdd46143	-0.10370114
139	0xbe72816d	-0.23682185
140	0xbd1dff48	-0.038573533
141	0xbdac9c1f	-0.08428215
142	0xbdf6e24d	-0.12054882
143	0xbc8c47e7	-0.01712413
144	0x3c07d4d6	0.00829049
145	0x3c6a1b0b	0.014288674
146	0x3ae5eacd	0.001754129
147	0x3c62f01d	0.013851193
148	0x3c982d08	0.01857616
149	0x3be7c2dd	0.00707279
150	0x3b919781	0.0044431095
151	0x3c273658	0.010205828
152	0xbb99dcac	-0.0046954956
153	0xbb8c793f	-0.0042869146
154	0x3bd56fc6	0.0065135686
155	0xbbfe2be9	-0.0077566993
156	0xbba93306	-0.005163553
157	0x3b4afd54	0.003097375
158	0xbc8056e1	-0.015666427
159	0xbc7aeedf	-0.01531574
160	0xbb8572e1	-0.0040725325
161	0xbca92ff7	-0.020652754
162	0x3c3288a7	0.010896838
163	0x3c969255	0.018380323
164	0x3c5eb208	0.013592251
165	0x3c37edf0	0.011226162
166	0x3c97d799	0.018535422
167	0x3c752ff0	0.0149650425
168	0xba68e32e	-0.000888395
169	0x3bcb2444	0.0061993916
170	0x3ba68035	0.0050812014
171	0x3c0dabaa	0.008646885
172	0x3c155bbe	0.009116111
173	0x3be93860	0.007117316
174	0x3c587bd3	0.013213116
175	0x3c2b938f	0.010472192
176	0x3c49350b	0.012280713
177	0x3bfdfe27	0.0077512446
178	0x3c0b36c4	0.008496944
179	0x3c11a724	0.008889947
180	0x3cddac91	0.027059825
181	0x3d12b564	0.03581752
182	0xbc8ae604	-0.016955383
183	0x3d623988	0.055230647
184	0x3dc0f8b9	0.0942244
185	0xbaf67f5a	-0.0018806264
186	0x3c26bd8d	0.010177028
187	0x3d1167cb	0.035499375
188	0xbcb39f4a	-0.02192654
189	0xbbe9a4b8	-0.0071302317
190	0xbc269597	-0.010167501
191	0xbc46a603	-0.012124541
192	0xbba245ab	-0.0049521527
193	0xbbcc3ace	-0.006232596
194	0xbb8706d3	-0.0041206866
195	0xbb30308b	-0.0026884403
196	0xbb826998	-0.003979873
197	0xbb81e653	-0.0039642244
198	0x3d90b6b1	0.070660956
199	0x3d942f45	0.072355784
200	0x3cc5b80a	0.024135608
201	0x3d911803	0.07084658
202	0x3d8fadb4	0.07015553
203	0x3ced24e1	0.02894825
204	0x3d3b094b	0.04566316
205	0x3d37ca04	0.04487039
206	0x3bd2afce	0.006429649
207	0xbb150e8c	-0.0022744266
208	0x3a6abcea	0.0008954542
209	0x3b24e2b8	0.002515955
210	0xbb5d918a	-0.0033808672
211	0x3ad3b0ca	0.001615071
212	0x3bb44a0f	0.0055019925
213	0xbbc73d40	-0.0060802996
214	0xba8f3266	-0.0010925054
215	0x3b26f025	0.0025472727
216	0x3c2d1783	0.010564688
217	0x3c1d38d5	0.009596069
218	0x3c3c8996	0.011507412
219	0x3c05b2aa	0.008160273
220	0x3bfebc9f	0.00777395
221	0x3c1d1102	0.0095865745
222	0x3c081c4a	0.008307526
223	0x3c13ba48	0.009016581
224	0x3c2adf05	0.010429149
225	0x3d332ed6	0.043745838
226	0x3d46681f	0.04843914
227	0x3cc94577	0.024569256
228	0x3d3dd53a	0.046345927
229	0x3d196735	0.03745194
230	0x3b113e00	0.00221622
231	0x3cb5b51e	0.02218109
232	0x3c4156dd	0.011800495
233	0x3bb60e88	0.0055559315
234	0xbc4c1450	-0.012456015
235	0xbcaeb6d3	-0.021327412
236	0xbc6cdde7	-0.0144572025
237	0xbca0aa46	-0.019612443
238	0xbcf263b2	-0.029588554
239	0xbc6d4aee	-0.014483197
240	0xbac837d0	-0.0015275422
241	0xbc1ad2cb	-0.009449671
242	0x3abde45a	0.001448761
243	0xbc095c58	-0.008383833
244	0xbb902457	-0.0043988633
245	0x3cace026	0.021102976
246	0xbccd5467	-0.02506466
247	0xbcb62f04	-0.022239216
248	0x3ba1083b	0.004914311
249	0xbc6baefd	-0.014384982
250	0xbc9ebb4c	-0.01937642
251	0x3bf02f3d	0.00732985
252	0xbcc2fc7b	-0.023802033
253	0xbd01d71e	-0.031699292
254	0xbce2d9d0	-0.027691752
255	0xbccb80ec	-0.024841748

scale1.0.1.weight f4 [64]
0	0x3f78b7b1	0.9715529
1	0x3f91f028	1.1401415
2	0x3f8a045f	1.0782584
3	0x3f6d643e	0.9273108
4	0x3f812c36	1.0091617
5	0x3f576876	0.8414377
6	0x3f8309ed	1.0237404
7	0x3f6dd1dc	0.92898345
8	0x3f8e85df	1.1134604
9	0x3f7277ad	0.9471386
10	0x3f7756ae	0.9661664
11	0x3f6c93c5	0.9241298
12	0x3f7fd3f9	0.9993282
13	0x3f70a54a	0.9400221
14	0x3f72b0e5	0.9480117
15	0x3f804be7	1.0023164
16	0x3f6133be	0.8796958
17	0x3f72048c	0.9453819
18	0x3f8a9a77	1.0828389
19	0x3f7e5f58	0.99364233
20	0x3f7aff23	0.9804556
21	0x3f968817	1.1760281
22	0x3f83f523	1.0309185
23	0x3f7f4c1b	0.997255
24	0x3f781bfc	0.969177
25	0x3f7597e2	0.9593488
26	0x3f7da733	0.9908325
27	0x3f7762e9	0.966353
28	0x3f76b0b2	0.96363366
29	0x3f812224	1.0088544
30	0x3f72242b	0.9458644
31	0x3f479684	0.77964044
32	0x3f885f88	1.0654154
33	0x3f93556b	1.1510442
34	0x3f6d139f	0.92608064
35	0x3f7e9be7	0.9945664
36	0x3f82c3b3	1.0215973
37	0x3f75d15b	0.96022576
38	0x3f8c02df	1.0938376
39	0x3f892aa0	1.0716133
40	0x3f877c07	1.0584725
41	0x3f83b4a9	1.0289508
42	0x3f7472a5	0.95487434
43	0x3f7978f5	0.9745019
44	0x3f8d98f8	1.1062307
45	0x3f71be9d	0.9443148
46	0x3f7c55c4	0.9856837
47	0x3f5b5d94	0.85689664
48	0x3f8aa364	1.0831113
49	0x3f6cbd6c	0.92476535
50	0x3f89038e	1.070421
51	0x3f778809	0.9669195
52	0x3f733ac5	0.9501155
53	0x3f5be0bc	0.8588979
54	0x3f673f07	0.9033055
55	0x3f65d739	0.8978153
56	0x3f7cecfe	0.9879912
57	0x3f59368c	0.84848857
58	0x3f8f8dde	1.121517
59	0x3f8c45c1	1.0958787
60	0x3f8ead2d	1.1146599
61	0x3f84b074	1.0366349
62	0x3f78ef18	0.9723983
63	0x3f8e8e27	1.1137131

scale1.0.1.bias f4 [64]
0	0xba1ebc68	-0.00060552964
1	0x3e62c920	0.22147036
2	0x3e24bbce	0.16087267
3	0xbd1f2412	-0.03885276
4	0x3cdc5f98	0.026901051
5	0xbdd8fa4f	-0.105946176
6	0xbc480a59	-0.012209498
7	0xbcb7c5ae	-0.022433128
8	0x3da4ca3a	0.08046384
9	0x3d79d7cd	0.06099682
10	0x3d147575	0.03624483
11	0xbc72e3ed	-0.01482485
12	0x3b3bba49	0.002864497
13	0xbc8fcba9	-0.017553167
14	0xbc8ef10b	-0.017448923
15	0x3d013deb	0.03155319
16	0xbb95d187	-0.0045720967
17	0xbd617743	-0.055045377
18	0x3d46c735	0.048529822
19	0xbcc1d2fc	-0.023660176
20	0x3d44af7e	0.048018925
21	0x3e83ce0c	0.2574314
22	0x3b3626b6	0.002779407
23	0x3e24e6a1	0.16103603
24	0x3ba0e9eb	0.0049106977
25	0xb9b9c844	-0.0003543516
26	0x3d18e3f9	0.037326787
27	0x3d281298	0.041033357
28	0x3d8d7e35	0.06908838
29	0x3d6f0c80	0.05836153
30	0x3b728cce	0.0037010196
31	0xbe0f26f0	-0.13979697
32	0x3d7ee97d	0.06223439
33	0x3eb3c1f0	0.351089
34	0x3d4c88b5	0.04993506
35	0x3d3b2941	0.04569364
36	0x3d8dacd3	0.06917729
37	0x3d2297b4	0.039695457
38	0x3dbb4fc9	0.09146077
39	0x3e150a1b	0.14554636
40	0x3d098366	0.033572577
41	0xbc05d257	-0.008167825
42	0xbc570e3d	-0.013125953
43	0x3d9c3757	0.07627743
44	0x3e5a8844	0.21341044
45	0xbd9ea856	-0.07746951
46	0x3c4a3043	0.012340608
47	0xbd6bfb11	-0.057612482
48	0x3d47b44c	0.04875593
49	0x3d22b407	0.03972247
50	0xbc96ce55	-0.018408934
51	0xbd24a99a	-0.040200807
52	0xbc80823a	-0.015687097
53	0xbd13b947	-0.036065366
54	0x3d88aaf8	0.06673235
55	0xbd8e75a4	-0.06956032
56	0xba517153	-0.0007989604
57	0xbd557c1a	-0.052120306
58	0x3e275933	0.1634262
59	0x3e2454bb	0.16047947
60	0x3db3c72f	0.08778226
61	0x3e1373cf	0.14399646
62	0x3d8df5dc	0.069316596
63	0x3d489887	0.048973586

scale1.0.1.running_mean f4 [64]
0	0xc0ba05a9	-5.813191
1	0x3fa2dcc0	1.2723618
2	0xbe902fb8	-0.28161407
3	0xc0d42253	-6.62919
4	0x40a39a3f	5.112579
5	0xc02aee3c	-2.6707907
6	0xc08d1701	-4.409058
7	0x40e09ef8	7.0194054
8	0x3fae7b85	1.3631445
9	0xbfdab7b4	-1.7087312
10	0xbf8ae700	-1.0851746
11	0xbf609307	-0.87724346
12	0x4068fe4a	3.6405206
13	0xbf5d57aa	-0.8646189
14	0x3ff6fd5b	1.9296068
15	0xbff25ca3	-1.893452
16	0x4071d4a8	3.7786045
17	0xc00f48a2	-2.2388082
18	0xc00c4b94	-2.192113
19	0xc0d9d484	-6.807192
20	0xc015e135	-2.3418705
21	0x3dc2b37a	0.09506889
22	0xc06dc59e	-3.7151866
23	0xbf496617	-0.786714
24	0x402fb3ac	2.7453413
25	0x3fbd9c05	1.4813238
26	0x3f81e3fb	1.0147699
27	0xbf2112f1	-0.6291953
28	0x3fdb6501	1.7140199
29	0xbdd41810	-0.10356152
30	0xc0abb477	-5.3657794
31	0x3f1ebdd4	0.62008405
32	0xbff96d7e	-1.9486539
33	0x3bbde699	0.0057953116
34	0x3fb54971	1.4163038
35	0xc01eb5fb	-2.4798572
36	0x3ff4a3db	1.9112505
37	0xbf94ee72	-1.1635268
38	0xbffa828d	-1.9571091
39	0xbf4542b4	-0.77054906
40	0x402625f1	2.5960658
41	0xc080f7a0	-4.0302277
42	0x409b8386	4.859805
43	0xc03a5f2e	-2.9120593
44	0xbf215af9	-0.6302944
45	0xc059e075	-3.4043248
46	0x40198185	2.3985302
47	0x408605ad	4.188193
48	0x3ffb9a90	1.9656544
49	0x406d1dd9	3.7049468
50	0x3d9a2c47	0.075279765
51	0xbf222fe2	-0.63354313
52	0xbdfa4169	-0.12219507
53	0xc046d07b	-3.1064746
54	0xc029edc8	-2.655138
55	0xc0bc5ae0	-5.886093
56	0x3f3214e0	0.695631
57	0xc07dd373	-3.9660308
58	0xbf207421	-0.626772
59	0xbf2c7d63	-0.67378825
60	0xbe116b3c	-0.14201063
61	0xbe2dafc6	-0.16961583
62	0xbf01e7cb	-0.50744313
63	0x3f7e3542	0.99300015

scale1.0.1.running_var f4 [64]
0	0x40dc3738	6.8817406
1	0x3ebf20f2	0.37329823
2	0x3e80fa03	0.25190744
3	0x419a5a49	19.294085
4	0x40e02412	7.004403
5	0x40fb7adc	7.8587475
6	0x408c7c0f	4.390144
7	0x4122650e	10.149672
8	0x3f244e66	0.64182127
9	0x4027fa20	2.6246414
10	0x40e65862	7.198289
11	0x41040067	8.250098
12	0x409e431a	4.945691
13	0x40cfa325	6.488665
14	0x3f4a7620	0.79086494
15	0x4086dde7	4.2145877
16	0x40a1453b	5.039701
17	0x400d3259	2.206198
18	0x4033dd85	2.8103955
19	0x410877dc	8.529263
20	0x40974fca	4.72849
21	0x3e493b62	0.19651559
22	0x4108ebab	8.557536
23	0x4134477d	11.267453
24	0x4156aae8	13.416725
25	0x41040be1	8.2529
26	0x40e5e2ab	7.1839194
27	0x4102bde6	8.171362
28	0x41093d86	8.57752
29	0x411a9a17	9.66262
30	0x40c19f82	6.050721
31	0x410fbbe2	8.98337
32	0x3f915953	1.1355385
33	0x3e759888	0.23983967
34	0x40f25b2c	7.5736294
35	0x414c3b67	12.764503
36	0x40280518	2.625311
37	0x4096358a	4.6940355
38	0x3fd3db8a	1.6551373
39	0x3f2178b7	0.6307482
40	0x3ffc07eb	1.9689916
41	0x408cf10d	4.404425
42	0x40deffe9	6.968739
43	0x4103bb84	8.23328
44	0x3ec28b1b	0.37996754
45	0x4113c34f	9.235183
46	0x3f9f11b0	1.2427273
47	0x40e35f10	7.1053543
48	0x3febd7dc	1.842525
49	0x40746af7	3.8190286
50	0x3ebab8b8	0.36469054
51	0x41478a6f	12.471297
52	0x40cfe259	6.4963803
53	0x4078a270	3.8849144
54	0x40e12e23	7.036882
55	0x410597c5	8.349553
56	0x41036fb9	8.214776
57	0x412b3779	10.701043
58	0x3e83a75e	0.2571363
59	0x3ef48b7f	0.47762677
60	0x3eb0897f	0.344799
61	0x3ea3f4aa	0.320226
62	0x41062298	8.383446
63	0x3f63f1c0	0.89040756

scale1.1.0.weight f4 [64, 64, 3, 3]
0	0xbaa4047b	-0.0012513542
1	0x3c73325f	0.014843552
2	0x3ba583c8	0.00505111
3	0x3c137fb3	0.009002614
4	0x3cbca80b	0.023029348
5	0x3c52f564	0.0128758885
6	0x3aac8ec7	0.001316511
7	0x3c8a7e6c	0.016905986
8	0x3ba81893	0.0051298826
9	0x3bbc1dd3	0.00574086
10	0x3c432b71	0.011912213
11	0x3b9b83c9	0.0047459346
12	0xbb04fe96	-0.0020293347
13	0xba9900fa	-0.0011673265
14	0xbbe041b3	-0.0068437695
15	0xbcb058c2	-0.021526698
16	0xbc6475d4	-0.013944108
17	0xbcbd5596	-0.0231121
18	0xbbaabf55	-0.005210797
19	0x3a260043	0.00063324365
20	0xba22ff52	-0.0006217855
21	0xba8c0650	-0.0010683034
22	0x3af4a804	0.0018665795
23	0xbbd0cfcf	-0.006372429
24	0xbbd30029	-0.006439228
25	0xbb440259	-0.0029908626
26	0xbc1b68ce	-0.009485437
27	0xbc95b623	-0.018275326
28	0xbc98c659	-0.018649267
29	0xbcd28f2b	-0.025703033
30	0xbc8d9c03	-0.017286306
31	0xbc8529df	-0.016255317
32	0xbcbe2abf	-0.023213742
33	0xbcd65cd4	-0.02616731
34	0xbcdec18a	-0.027191896
35	0xbcfb2af9	-0.03066014
36	0xbccfa867	-0.025348855
37	0xbd014c13	-0.03156669
38	0xbcb902eb	-0.0225844
39	0xbcd81165	-0.026375482
40	0xbd0c04b6	-0.03418418
41	0xbcf9e9fa	-0.030507077
42	0xbc256e7d	-0.010097143
43	0xbc8de6d3	-0.01732198
44	0xbc69f691	-0.014279977
45	0xbd1ef506	-0.03880789
46	0xbcd22a14	-0.02565483
47	0xbcaee579	-0.021349655
48	0xbbfcf9d3	-0.007720211
49	0x3b10c2df	0.0022088808
50	0x3bd329b7	0.006444182
51	0xbc12995d	-0.0089476975
52	0x3b4664fc	0.0030272594
53	0x3bd225aa	0.0064131813
54	0xbbeab5b5	-0.0071627744
55	0x3b615a2c	0.0034386022
56	0xbc0de2b4	-0.008660007
57	0x3bdb1677	0.0066860276
58	0x3ca38301	0.019959928
59	0x3b853ce5	0.004066097
60	0x3c3c1dc4	0.011481706
61	0x3cb60c57	0.022222681
62	0x3c489d36	0.012244513
63	0xbc5e08e2	-0.0135519225
64	0xbbab0795	-0.0052194097
65	0xbbf67942	-0.0075217793
66	0xbc361e94	-0.011115689
67	0xbc00e21b	-0.007866408
68	0xbc25c0b7	-0.010116748
69	0xbb772ea3	-0.0037717007
70	0xbb8f7337	-0.0043777484
71	0xbbda43dc	-0.0066609215
72	0x3c20cf27	0.009815014
73	0x3c535963	0.012899729
74	0x3bf4011f	0.0074464227
75	0x3b98ae0f	0.0046594213
76	0x3b534ad1	0.003224064
77	0x394458be	0.00018725076
78	0xbb8a8327	-0.0042270604
79	0x3b39c707	0.002834739
80	0xbafbbf2d	-0.0019206755
81	0xbc281c3b	-0.010260637
82	0x3bc0caee	0.005883566
83	0xbc82390e	-0.015896346
84	0x3bc3bee3	0.005973683
85	0x3ca30ff2	0.019905064
86	0xba3001d7	-0.00067141413
87	0x3bb47734	0.005507374
88	0x3cc46b6a	0.023977
89	0x3b8b293d	0.0042468593
90	0xbd4d403a	-0.05011008
91	0xbd70ae1d	-0.058759797
92	0xbd4438a4	-0.04790558
93	0xbd71d43e	-0.0590403
94	0xbd8bb308	-0.06821257
95	0xbd6d3757	-0.057914104
96	0xbd582e1c	-0.05277835
97	0xbd7b3bd9	-0.061336372
98	0xbd5766b0	-0.052588165
99	0x3c545c8d	0.012961519
100	0x3ca7e288	0.02049376
101	0x3ba0428b	0.004890745
102	0x3d2adc61	0.041714076
103	0x3d42a479	0.047520135
104	0x3d044956	0.0322965
105	0x3d0aa225	0.03384604
106	0x3d2215ac	0.03957145
107	0x3cdeabcc	0.027181529
108	0xbd131348	-0.03590706
109	0xbce9b6ed	-0.028529609
110	0xbce16ac3	-0.027516728
111	0xbcb97736	-0.022639852
112	0xbcbac267	-0.022797776
113	0xbca3d911	-0.020000966
114	0xbcd22492	-0.025652204
115	0xbca9b79e	-0.020717438
116	0xbca08473	-0.019594407
117	0xbd227ae2	-0.03966797
118	0xbd1f85a4	-0.03894581
119	0xbce1edb1	-0.02757916
120	0xbd109210	-0.035295546
121	0xbd053077	-0.032516923
122	0xbcd5550f	-0.026041536
123	0xbd226015	-0.039642412
124	0xbd22ecf0	-0.039776742
125	0xbcd7d3c9	-0.026346104
126	0x3c2bfc49	0.010497161
127	0xb9abb714	-0.00032752065
128	0xbbf2ac4c	-0.0074057933
129	0x3c74715a	0.014919603
130	0xbaefd35e	-0.0018297245
131	0xbc172be0	-0.009226769
132	0x3cd14c96	0.025549214
133	0x3c00942d	0.007847828
134	0xba00d576	-0.00049146207
135	0x3cd57c6a	0.026060302
136	0x3cd47337	0.025933845
137	0x3c6a35b1	0.014295028
138	0x3c9e3177	0.019310696
139	0x3cc12c31	0.023580642
140	0x3c1a5512	0.009419696
141	0x3b8b7bc4	0.0042566974
142	0x3c2ab943	0.010420146
143	0xbbb477fb	-0.005507467
144	0xbc6ba564	-0.014382694
145	0xbac98e1e	-0.0015377437
146	0xbbe8f406	-0.007109168
147	0x3c5e2433	0.013558435
148	0x3cc9a83d	0.024616355
149	0x3c7d5296	0.015461585
150	0x3c86ec15	0.016469995
151	0x3ce006e6	0.02734704
152	0x3cb84215	0.022492448
153	0x3b751e93	0.0037402257
154	0xbb47830a	-0.0030443096
155	0xbacc366f	-0.0015580187
156	0x3bb1c407	0.0054249796
157	0xbaf3a6d3	-0.0018589146
158	0x3a3f3d58	0.00072952127
159	0xbb985de2	-0.0046498636
160	0xbc3d6f98	-0.011562251
161	0xbbbd349c	-0.005774094
162	0x3b5f2764	0.0034050578
163	0x3c41f3e9	0.011837938
164	0x3bbaa240	0.0056956112
165	0x3c8a32b8	0.016869888
166	0x3cc36a6c	0.023854457
167	0x3c92d13d	0.017922038
168	0x3c4f28dc	0.012644019
169	0x3c9953f8	0.018716797
170	0x3c16d925	0.009207045
171	0xbce3456d	-0.027743066
172	0xbcfdc3fa	-0.030977238
173	0xbd2a4cb4	-0.041577056
174	0xbcac3a51	-0.021023901
175	0xbcb83d2c	-0.022490107
176	0xbd17d6c0	-0.037070036
177	0xbce5ff59	-0.02807586
178	0xbd07a8c9	-0.03311995
179	0xbd298dd4	-0.041395023
180	0xbd0bec04	-0.03416063
181	0xbd3e8755	-0.04651578
182	0xbd3920d5	-0.045197327
183	0xbd42e908	-0.047585517
184	0xbd793a9f	-0.06084692
185	0xbd6b6a3c	-0.05747436
186	0xbd598719	-0.053107355
187	0xbd8aa72e	-0.06770168
188	0xbd72c761	-0.059272174
189	0x3c66a90d	0.014078391
190	0x3ccf40f7	0.025299532
191	0x3cf675ba	0.030085433
192	0x3c134508	0.008988626
193	0x3c820ab9	0.015874254
194	0x3cc70fd2	0.024299536
195	0x3c946b11	0.01811746
196	0x3cea934b	0.028634688
197	0x3cdd6f8a	0.027030725
198	0xbccd1e54	-0.025038876
199	0xbb74ca06	-0.003735186
200	0xbce093ec	-0.027414285
201	0xbbfcb4ca	-0.0077119814
202	0x3c5f99a5	0.013647472
203	0xbc2ebe55	-0.010665496
204	0xbc8891eb	-0.016671142
205	0x3b9bee1d	0.00475861
206	0xbc8d8e3c	-0.017279737
207	0xbc990440	-0.018678784
208	0xbcd595c3	-0.026072389
209	0xbbcf748d	-0.0063310326
210	0xbd030c0e	-0.031993918
211	0xbd31f4ea	-0.04344646
212	0xbcc5ece5	-0.024160812
213	0xbd006290	-0.031343997
214	0xbd28df9e	-0.041228883
215	0xbccb3be1	-0.024808826
216	0xbd0986a9	-0.033575688
217	0xbd243278	-0.040087193
218	0xbcecc908	-0.028904453
219	0xbd27d76d	-0.04097693
220	0xbd49b8db	-0.049248558
221	0xbd18f68d	-0.037344504
222	0xbccad1dc	-0.024758272
223	0xbd0222bf	-0.031771418
224	0xbc910af1	-0.017705413
225	0xbc0decf6	-0.008662453
226	0xbbd14f68	-0.00638764
227	0x3c102442	0.008797707
228	0xbcc503ee	-0.024049725
229	0xbccf6ebe	-0.02532136
230	0xbc34ff87	-0.011047251
231	0xbcdaa365	-0.02668924
232	0xbce4aa23	-0.027913159
233	0xbc77117f	-0.015079855
234	0x3d296416	0.041355215
235	0x3d8bcbf7	0.068260126
236	0x3d22412b	0.03961293
237	0x3d9e3974	0.07725802
238	0x3ddb92f1	0.10721386
239	0x3d8fffb9	0.07031197
240	0x3d6bfd81	0.057614807
241	0x3dc43297	0.09579962
242	0x3d8c9b62	0.068655744
243	0xbcb4570d	-0.022014165
244	0xbd048a91	-0.03235871
245	0xbc91b61d	-0.017787034
246	0xbd0b7b21	-0.03405297
247	0xbd4957b0	-0.04915589
248	0xbcfecbb5	-0.031102994
249	0xbcf2549e	-0.029581364
250	0xbd31890e	-0.043343596
251	0xbce812ba	-0.028329242
252	0x3cae1876	0.021251898
253	0x3d361dc2	0.044461973
254	0x3d09508b	0.033524077
255	0x3d21ccd7	0.03950199

scale1.1.1.weight f4 [64]
0	0x3f6fafe6	0.93627775
1	0x3f825a43	1.0183796
2	0x3f748d6b	0.95528287
3	0x3f7e90bc	0.994396
4	0x3f892b94	1.0716424
5	0x3f745572	0.9544288
6	0x3f89cf6e	1.0766428
7	0x3f8088a6	1.0041702
8	0x3f71e63b	0.9449193
9	0x3f7196d8	0.94370794
10	0x3f743eb5	0.95408183
11	0x3f82631e	1.0186498
12	0x3f867d60	1.0507011
13	0x3f8b84e1	1.0899926
14	0x3f756ad9	0.9586616
15	0x3f743d67	0.9540619
16	0x3f7a0d5c	0.97676635
17	0x3f8a50c3	1.0805897
18	0x3f7c9faa	0.9868113
19	0x3f7efcda	0.9960457
20	0x3f726882	0.94690716
21	0x3f796386	0.97417486
22	0x3f7baa20	0.98306465
23	0x3f81e361	1.0147516
24	0x3f734653	0.9502918
25	0x3f964879	1.1740867
26	0x3f7187b4	0.9434769
27	0x3f86d4db	1.0533708
28	0x3f71aaad	0.94401056
29	0x3f77e3a0	0.96831703
30	0x3f8534a4	1.040669
31	0x3f759cf1	0.959426
32	0x3f703d57	0.938436
33	0x3f744fb1	0.954341
34	0x3f7fd4a7	0.99933857
35	0x3f78ac64	0.9713805
36	0x3f6c1d64	0.92232347
37	0x3f772531	0.96541125
38	0x3f73cace	0.9523133
39	0x3f775f1c	0.966295
40	0x3f7e36d6	0.99302423
41	0x3f80cccb	1.0062498
42	0x3f820002	1.0156252
43	0x3f6c8299	0.92386776
44	0x3f7fdc27	0.999453
45	0x3f801500	1.0006409
46	0x3f8fa635	1.1222597
47	0x3f77b271	0.96756655
48	0x3f763016	0.96167123
49	0x3f76c370	0.96391964
50	0x3f77f8b6	0.9686388
51	0x3f84559e	1.0338628
52	0x3f6e07f4	0.92980886
53	0x3f74e9e8	0.9566941
54	0x3f83a6b9	1.0285255
55	0x3f7ab882	0.97937787
56	0x3f8091de	1.0044515
57	0x3f765fa9	0.96239716
58	0x3f773ee6	0.9658035
59	0x3f7f2854	0.9967091
60	0x3f7d853b	0.9903142
61	0x3f7afe91	0.9804469
62	0x3f95007e	1.1640775
63	0x3f87c432	1.0606749

scale1.1.1.bias f4 [64]
0	0xbd1d985b	-0.038475376
1	0x3dccfda6	0.10009317
2	0x3d050d6e	0.03248351
3	0x3e043769	0.12911762
4	0x3e018bb0	0.12650943
5	0x3cb4d20b	0.022072813
6	0x3e049f4f	0.12951396
7	0x3cc8f276	0.024529677
8	0xbd2d3543	-0.042287122
9	0x3d07ffdd	0.033202995
10	0x3c8e8b5e	0.01740044
11	0x3d7427b3	0.059608173
12	0x3e03dbaa	0.12876764
13	0x3dc55192	0.09634699
14	0xbcec98f4	-0.028881527
15	0xbc77b42e	-0.015118642
16	0xbcc14539	-0.023592578
17	0x3de587c2	0.112075344
18	0x3dcfb8d3	0.10142674
19	0x3db9a8fd	0.09065435
20	0x3b894dcc	0.0041901823
21	0x3d99bb04	0.075063735
22	0x3ddc511f	0.1075766
23	0x3d9f130f	0.07767307
24	0x3c8585be	0.016299125
25	0x3e2f4ce8	0.17119181
26	0xbc703a8e	-0.014662398
27	0x3e2f17a9	0.1709887
28	0x3c275afe	0.010214565
29	0xbbe7c62e	-0.0070731854
30	0x3df20945	0.11818174
31	0x3bc07cb7	0.005874242
32	0x3d3cafa6	0.04606595
33	0x3b14d67b	0.0022710848
34	0x3b05272a	0.0020317533
35	0x3df08fdb	0.11746188
36	0xbd0cef7d	-0.03440808
37	0x3c72dc5e	0.014823047
38	0xbd1583c5	-0.03650262
39	0x3d59363e	0.053030245
40	0x3daf3395	0.0855476
41	0x3d370961	0.04468668
42	0x3d54ddeb	0.05196945
43	0x3cd3f86e	0.025875296
44	0x3debfce5	0.11522845
45	0x3cdb0dd9	0.026740002
46	0x3e3f099f	0.18656014
47	0x3d28acf7	0.041180577
48	0x3c787021	0.015163452
49	0xbd2469d1	-0.040139977
50	0xbbf54c7f	-0.0074859257
51	0x3dc6cf61	0.09707523
52	0x3d1d5dee	0.038419656
53	0x3c636d8a	0.013881097
54	0x3d9a4f5d	0.075346686
55	0x3db74d67	0.0895031
56	0x3d047e1c	0.03234683
57	0x3db2584b	0.08708247
58	0x3c3df3a7	0.011593736
59	0x3e4a1777	0.19735514
60	0xba6b4076	-0.0008974144
61	0x3d0d64aa	0.03451983
62	0x3dceab8b	0.10091313
63	0x3dd553ff	0.104164116

scale1.1.1.running_mean f4 [64]
0	0xbeeff4ac	-0.46866357
1	0xc08b1c4a	-4.3472033
2	0xc023edf8	-2.5613995
3	0xc013ca2a	-2.309214
4	0x3ece719d	0.40321055
5	0xbfcc46e3	-1.5959133
6	0x3e84d341	0.25942424
7	0x3feb9fa1	1.840809
8	0x407f4f47	3.9892137
9	0xbf177c74	-0.59174275
10	0xbfbea0c7	-1.4892815
11	0x3f119082	0.56861126
12	0xbe84bbea	-0.25924617
13	0x3da206b5	0.079114355
14	0x3f72e6eb	0.948836
15	0xbf38d82e	-0.72204864
16	0xbe21105e	-0.157289
17	0xbe9d5e3a	-0.30735952
18	0xc06b5040	-3.676773
19	0xc04fe58f	-3.2483861
20	0xc042e9a1	-3.0455096
21	0xc0106569	-2.2561896
22	0xbf866e6f	-1.0502452
23	0xc07b315a	-3.9248872
24	0xbfdbcaa4	-1.7171216
25	0x3e1e783c	0.15475553
26	0x3e5c58ca	0.21518245
27	0xc06c2b77	-3.690153
28	0xc01d86ad	-2.461345
29	0xbe8a05a3	-0.26957425
30	0xc0308fbf	-2.7587736
31	0xbdcddac5	-0.100514926
32	0xc02edc9f	-2.7322156
33	0x401b8f20	2.4306107
34	0xbf403d17	-0.75093216
35	0xc02f5383	-2.7394722
36	0x3e502366	0.20326003
37	0xbf4cb77e	-0.79967487
38	0x40093273	2.1437042
39	0xc03fa3c3	-2.9943702
40	0xbea7c7e7	-0.327697
41	0xbf8c6465	-1.0968138
42	0xbe7db13d	-0.24774642
43	0xbfcb3571	-1.5875684
44	0xbf64cef4	-0.89378285
45	0xbe7a6d89	-0.24455847
46	0x3ea484c1	0.32132533
47	0x3df4491d	0.11928008
48	0xbfb24f87	-1.393052
49	0x3fcf89a5	1.6213881
50	0x40419dfb	3.0252674
51	0xc025d091	-2.590855
52	0xbfcff3a6	-1.6246231
53	0x3e2c9b23	0.16856055
54	0x3f2913cb	0.66045827
55	0xc01dd941	-2.4663851
56	0x3f774d11	0.9660197
57	0xc02676c7	-2.6009996
58	0xc003b70f	-2.058048
59	0xbef6777b	-0.4813803
60	0x3f792c58	0.9733329
61	0x3ea63b83	0.3246728
62	0x3ce6f9b3	0.028195238
63	0x3d0ebe44	0.03484942

scale1.1.1.running_var f4 [64]
0	0x410565b6	8.337332
1	0x40ce8046	6.4531584
2	0x409f0ca2	4.970292
3	0x40a0b496	5.022044
4	0x3f6077f8	0.8768306
5	0x4141bfb0	12.109299
6	0x3f5df926	0.86708295
7	0x41085452	8.520586
8	0x40caa578	6.332699
9	0x41400183	12.000369
10	0x40fefb88	7.9682045
11	0x40f2e556	7.590495
12	0x3f2534f0	0.645339
13	0x3f107ca4	0.56440187
14	0x40db193f	6.846832
15	0x40c2afdc	6.083967
16	0x3fd3b84c	1.6540618
17	0x3f657298	0.8962798
18	0x405dec5b	3.467551
19	0x40fd6c0a	7.9194384
20	0x40bdbd0b	5.9293265
21	0x410fcfa7	8.988196
22	0x3faaf0e2	1.3354762
23	0x40f68f52	7.704995
24	0x4140e39c	12.055569
25	0x3f1234b1	0.5711165
26	0x40f2cac4	7.5872517
27	0x40a27481	5.0767217
28	0x40f168f8	7.5440636
29	0x41417881	12.09192
30	0x409b88fd	4.860472
31	0x412fee0c	10.995617
32	0x40ec9d41	7.394196
33	0x40b6e516	5.7154646
34	0x404984b5	3.1487248
35	0x409cdf92	4.9022913
36	0x41201dc4	10.007267
37	0x4123b84c	10.232494
38	0x40c427fb	6.1298804
39	0x41030d47	8.190742
40	0x4117fa13	9.498553
41	0x4108fc10	8.561539
42	0x41050552	8.313799
43	0x40e782cf	7.234718
44	0x410061b4	8.023853
45	0x40af833c	5.48477
46	0x3f7d530f	0.9895486
47	0x4122abb6	10.166922
48	0x408f3248	4.474888
49	0x4086862a	4.2038774
50	0x40c20dc1	6.064179
51	0x40f72e67	7.7244143
52	0x40f893af	7.768028
53	0x40ec98ef	7.3936687
54	0x40eaac26	7.333514
55	0x400b9a48	2.1812916
56	0x40c007cb	6.0009513
57	0x40e27a95	7.0774636
58	0x4052a399	3.2912352
59	0x3f85ccfd	1.0453182
60	0x40c279ca	6.077367
61	0x40ef1736	7.4715834
62	0x3f5f42c7	0.8721127
63	0x3f664549	0.8994947

scale2.1.0.weight f4 [64, 64, 3, 3]
0	0xbc99d634	-0.018778898
1	0xbc037959	-0.008024537
2	0x3b3e2760	0.0029015169
3	0xbc894318	-0.016755626
4	0xbbdace09	-0.0066773933
5	0x3981ced9	0.0002475891
6	0xbc196835	-0.009363224
7	0xbb51a97e	-0.0031991894
8	0x3b4c8243	0.0031205572
9	0x3c9bf953	0.019039785
10	0x3c843e6d	0.016143048
11	0x3bebb399	0.0071930406
12	0x3c41ce8c	0.01182903
13	0x3bdf7112	0.006818899
14	0xbbeeb8e7	-0.0072852257
15	0x3c3ee8a8	0.011652149
16	0x3c071c65	0.008246516
17	0x3c033fdf	0.0080108335
18	0xbba500e7	-0.005035508
19	0x3c82972f	0.01594123
20	0x3ca3b4e8	0.019983724
21	0xb892ceb6	-7.0003254e-05
22	0x3ca8bbed	0.020597422
23	0x3cd01658	0.02540128
24	0x3bf4ff6a	0.007476737
25	0x3cceae55	0.025229612
26	0x3cca1a4a	0.024670739
27	0xbc9c93e7	-0.019113494
28	0xbba12f66	-0.0049189804
29	0x3bd486cc	0.0064857956
30	0xbcedbf6b	-0.02902194
31	0xbcb9ee02	-0.022696499
32	0xbc4907cd	-0.012269926
33	0xbcfac653	-0.030612146
34	0xbce571c8	-0.028008357
35	0xbc70e5b1	-0.0147032
36	0x3b9fba48	0.0048745014
37	0x3c2da0c8	0.010597415
38	0x3caf381c	0.02138906
39	0xbbafca2e	-0.005364678
40	0x3af50983	0.0018694851
41	0x3c74bac4	0.0149371065
42	0xbc26ed24	-0.010188375
43	0xbc407fe5	-0.011749242
44	0xbb030ae6	-0.001999551
45	0xbbe52b31	-0.006993674
46	0xbc9a2b58	-0.018819496
47	0xbd2ba9a5	-0.041909833
48	0xb9041a49	-0.00012598293
49	0xbc8ac8af	-0.016941397
50	0xbd18b3d6	-0.03728088
51	0xbcb541c0	-0.022126079
52	0xbcefd2cb	-0.029275319
53	0xbd1f1a7d	-0.03884362
54	0xbc18bc83	-0.009322288
55	0x3c33fe46	0.0109859165
56	0x3d018c8a	0.03162817
57	0xbcb6b6f9	-0.022304045
58	0xbb37c4a3	-0.0028040789
59	0x3ca8791d	0.020565564
60	0xbcad1f35	-0.021133045
61	0xbc58f6b6	-0.013242414
62	0xbb3f7f7c	-0.0029220274
63	0xbd3e160a	-0.046407737
64	0xbda865ca	-0.0822254
65	0xbdbbfc2f	-0.091789596
66	0xbd3b40ee	-0.04571622
67	0xbda70887	-0.08155923
68	0xbd9de2af	-0.07709252
69	0xbd87efdc	-0.066375464
70	0xbda2a168	-0.07940942
71	0xbd8e4a3b	-0.06947752
72	0xbcd757a9	-0.026286917
73	0xbd3ee739	-0.04660723
74	0xbd56e7d9	-0.0524672
75	0xbd040d6e	-0.03223937
76	0xbd4c23e6	-0.049838923
77	0xbd559abf	-0.05214953
78	0xbd17fadc	-0.037104473
79	0xbd373fc5	-0.04473855
80	0xbd442c1c	-0.04789363
81	0xbd2afaf9	-0.041743252
82	0xbd243623	-0.04009069
83	0xbd0bd48f	-0.03413826
84	0xbd2d7105	-0.042344112
85	0xbd1ede8f	-0.038786467
86	0xbcbc75b8	-0.023005351
87	0xbd3a959e	-0.045552842
88	0xbd0bed85	-0.034162063
89	0xbc80dac5	-0.015729317
90	0x3cc53433	0.024072742
91	0x3c9cf8f3	0.019161677
92	0x3b850816	0.004059802
93	0x3c992e48	0.018698826
94	0x3c086721	0.008325369
95	0xbc5a7c2f	-0.013335272
96	0x3c543f18	0.012954496
97	0x3a5fead3	0.00085417664
98	0xbc5643e4	-0.01307771
99	0xbd202f3e	-0.039107554
100	0xbd0c7325	-0.034289498
101	0xbd1f6aa7	-0.03892007
102	0xbcec64ff	-0.028856752
103	0xbce72463	-0.028215593
104	0xbce2fe50	-0.027709156
105	0xbcd8c4e5	-0.026461074
106	0xbcd5bee6	-0.026092004
107	0xbceace55	-0.02866284
108	0x3bdb7ccf	0.006698228
109	0x3bc5b659	0.0060337004
110	0x3c9af7e5	0.018917033
111	0x3b04aede	0.002024583
112	0xbc27114b	-0.010196994
113	0xbc1af1f9	-0.009457105
114	0x3ce7706e	0.028251853
115	0x3c213011	0.00983812
116	0xbc7d1601	-0.015447141
117	0x3d248995	0.04017027
118	0x3d0b403f	0.033996817
119	0x3cac44e1	0.021028938
120	0x3d10d80d	0.035362292
121	0x3ca186c3	0.01971758
122	0x3c91e95f	0.017811475
123	0x3c906bac	0.017629467
124	0x37604dd1	1.33695585e-05
125	0x3cae38bc	0.021267287
126	0x3ca3f636	0.020014863
127	0x3c749310	0.014927641
128	0xb9df26fa	-0.00042562914
129	0x3cbb8f4d	0.02289548
130	0x3c828dc4	0.01593674
131	0xbb6334e2	-0.0034668972
132	0x3cdb8582	0.02679706
133	0x3c4a467f	0.012345909
134	0xbbacaf4b	-0.00526992
135	0x3d10125b	0.035173755
136	0x3cae51b0	0.021279186
137	0x3b5fafd4	0.0034131901
138	0x3d14dee4	0.036345378
139	0x3c88d949	0.016705172
140	0x3bffb7a0	0.007803872
141	0x3d44d6f0	0.048056543
142	0x3cd8bb25	0.026456425
143	0x3b5e3d26	0.003391096
144	0xbce57b5e	-0.028012928
145	0xbccbcb90	-0.02487734
146	0xbc976f6d	-0.01848575
147	0xbcca76b7	-0.02471481
148	0xbcbebba6	-0.023282837
149	0xbc53570e	-0.012899173
150	0xbbb913e5	-0.0056481236
151	0xbc588938	-0.013216309
152	0xbc8c74a1	-0.017145457
153	0x3c8b7993	0.017025745
154	0x3d277ff3	0.040893506
155	0x3d5ef0d6	0.054428898
156	0x3c39732a	0.011318961
157	0x3cc876e2	0.02447075
158	0x3d28accf	0.041180428
159	0x3c0aecb0	0.008479282
160	0x3c4ab830	0.012373015
161	0x3d43b2b7	0.047777858
162	0x3cb85c40	0.022504926
163	0x3d43636b	0.047702234
164	0x3d3cc808	0.046089202
165	0x3ccbf6a0	0.024897873
166	0x3d3d171f	0.046164628
167	0x3d480104	0.048829094
168	0x3cf7bcf8	0.030241475
169	0x3d373945	0.04473235
170	0x3d2f09c1	0.04273391
171	0xbcf48fba	-0.02985369
172	0xbd4d33da	-0.050098278
173	0xbd8722ad	-0.06598411
174	0xbd0ee38f	-0.034884986
175	0xbd6cd5ca	-0.057821073
176	0xbd80d45b	-0.062905036
177	0xbd45ee38	-0.048322886
178	0xbd480229	-0.048830185
179	0xbd1fee85	-0.03904583
180	0x3bd56cc4	0.00651321
181	0x3ca5e784	0.020251997
182	0x3cada6e8	0.021197751
183	0xbb0620dc	-0.0020466363
184	0xb88101de	-6.151547e-05
185	0x399487b0	0.00028329855
186	0xbb5f911e	-0.0034113596
187	0xbc0da304	-0.008644823
188	0xbbb6ee2e	-0.0055825925
189	0x3c2dd96c	0.010610919
190	0xbb35b8d9	-0.0027728586
191	0xbcc158f1	-0.02360198
192	0xba83ef08	-0.0010065744
193	0xbc847076	-0.016166907
194	0xbd028b8d	-0.031871367
195	0xbcacd273	-0.021096444
196	0xbcf528ca	-0.029926676
197	0xbd04951a	-0.032368757
198	0xbc5756e4	-0.013143275
199	0xbc4c14df	-0.012456148
200	0xbc7c5ccc	-0.015402984
201	0xbcf4f803	-0.029903417
202	0xbced9102	-0.02899981
203	0xbcbdf6e5	-0.023189018
204	0xbd243afd	-0.040095318
205	0xbcf972c3	-0.03045023
206	0xbc105130	-0.008808419
207	0x3c766f66	0.015041208
208	0x3c87a74e	0.01655927
209	0x3cacded4	0.021102346
210	0x3bc85343	0.006113441
211	0x3c4f6b75	0.012659897
212	0x3ced0169	0.028931336
213	0x3bf7e2e3	0.007564889
214	0x3cd99079	0.026558148
215	0x3d4fa33e	0.05069279
216	0xbc11dded	-0.008903009
217	0x3c1c43a8	0.009537615
218	0x3caa4eb1	0.020789476
219	0xbc62912c	-0.013828557
220	0xbb8dbc42	-0.0043254206
221	0x3c00cac6	0.007860845
222	0xbcba82a3	-0.02276737
223	0xbcad8a5a	-0.021184135
224	0xbc3ee235	-0.011650612
225	0x3c9a9d0c	0.018873714
226	0xbba961b6	-0.0051691188
227	0xbc8cb952	-0.017178211
228	0x3c7f3cec	0.01557849
229	0xbb136259	-0.002248904
230	0xbc2d9f4f	-0.010597064
231	0x3cfadb56	0.030622166
232	0x3c803c88	0.015653864
233	0x3c1be0de	0.009514062
234	0x3ce16a9a	0.027516652
235	0x3cfe5888	0.031048074
236	0x3ca58cda	0.020208765
237	0x3c3bea05	0.011469369
238	0x3bfabbc6	0.007651779
239	0xbb95f4ce	-0.004576302
240	0x3be27de8	0.006911982
241	0xbbe2d4e1	-0.00692235
242	0xbc904813	-0.017612493
243	0x398a1fdb	0.00026345145
244	0x3d1c10d2	0.03810198
245	0x3d69f94c	0.057122514
246	0xbc659a46	-0.014013832
247	0x3c2cea16	0.010553857
248	0x3d0e8255	0.034792263
249	0xbc3e433e	-0.0116127115
250	0x3c2d2382	0.010567548
251	0x3d1e0087	0.03857472
252	0xbc901466	-0.017587852
253	0xbbcf8856	-0.006333391
254	0x3b68fd14	0.0035551237
255	0xbc6c6181	-0.014427544

scale2.1.1.weight f4 [64]
0	0x3f6cd455	0.9251149
1	0x3f846c91	1.0345632
2	0x3f6bb197	0.92067856
3	0x3f85198c	1.0398421
4	0x3f8723f5	1.0557848
5	0x3f7e9aa5	0.9945472
6	0x3f7f4886	0.99720037
7	0x3f865520	1.0494728
8	0x3f744619	0.9541946
9	0x3f801e98	1.0009336
10	0x3f860130	1.0469112
11	0x3f7d7c8b	0.9901816
12	0x3f775727	0.9661736
13	0x3f7b0612	0.9805614
14	0x3f78fbc3	0.9725916
15	0x3f845cc2	1.0340807
16	0x3f70d574	0.94075704
17	0x3f83c3b9	1.0294105
18	0x3f885aeb	1.0652746
19	0x3f83a0ec	1.0283484
20	0x3f734311	0.9502421
21	0x3f84b66a	1.0368168
22	0x3f8066d4	1.0031381
23	0x3f8435bf	1.0328902
24	0x3f845ed8	1.0341444
25	0x3f804af3	1.0022873
26	0x3f7b9f43	0.9828989
27	0x3f801151	1.0005285
28	0x3f8439ab	1.0330099
29	0x3f82ac08	1.020875
30	0x3f812c12	1.0091574
31	0x3f7a775e	0.9783839
32	0x3f708972	0.93959725
33	0x3f7f333d	0.9968756
34	0x3f71cc5e	0.94452465
35	0x3f71221c	0.9419267
36	0x3f84033f	1.0313491
37	0x3f83d9f9	1.0300895
38	0x3f79697a	0.9742657
39	0x3f86386b	1.0485967
40	0x3f869316	1.0513637
41	0x3f85a6aa	1.0441487
42	0x3f8692a7	1.0513505
43	0x3f80be60	1.0058098
44	0x3f85e7d0	1.0461369
45	0x3f806c44	1.003304
46	0x3f7b9275	0.9827035
47	0x3f77f9e6	0.9686569
48	0x3f83c61d	1.0294834
49	0x3f6d9562	0.92806065
50	0x3f7e97a9	0.99450165
51	0x3f81ecc3	1.0150379
52	0x3f7922e0	0.9731884
53	0x3f76e5a2	0.9644414
54	0x3f81c1dd	1.0137287
55	0x3f7bb2fa	0.9831997
56	0x3f7e323d	0.9929541
57	0x3f7806ef	0.9688558
58	0x3f80f08f	1.0073413
59	0x3f882a1f	1.0637854
60	0x3f7fc43b	0.999088
61	0x3f811c04	1.0086675
62	0x3f7c2992	0.9850093
63	0x3f743759	0.95396954

scale2.1.1.bias f4 [64]
0	0xbd96c22c	-0.07361254
1	0xbbf31aef	-0.007418982
2	0xbdc01ce4	-0.093805104
3	0x3d192c60	0.037395835
4	0x3d3fe4d7	0.046849098
5	0xbd56ad1b	-0.05241118
6	0x3d5f541f	0.054523584
7	0xbd9e035a	-0.07715483
8	0xba771677	-0.000942565
9	0xbccd791d	-0.025082165
10	0xbc275999	-0.010214233
11	0xbd90ecab	-0.07076391
12	0xb9dcf971	-0.00042147518
13	0x3c4857e2	0.012227984
14	0x3c9595dc	0.018259935
15	0x3d7beacc	0.061503217
16	0xbca8d985	-0.020611534
17	0x3d0d247d	0.034458626
18	0x3cb91ec3	0.022597676
19	0xbdc4c14c	-0.09607181
20	0xbc40808a	-0.011749396
21	0x3dd27f2b	0.102781616
22	0x3d58c195	0.05291899
23	0x3d76f25b	0.060289722
24	0x3d85155f	0.06498217
25	0x3caa3118	0.020775363
26	0x3c959b51	0.018262537
27	0x3d946197	0.07245176
28	0x3d570414	0.052494124
29	0x3d0d6b3e	0.034526102
30	0x3cf3dde8	0.0297689
31	0x3c828842	0.015934113
32	0xbd91e554	-0.07123819
33	0x3c8729c8	0.016499415
34	0xbcc85ff3	-0.024459815
35	0xbd8009c0	-0.0625186
36	0xbcdf651e	-0.027269896
37	0xbd1266a0	-0.035742402
38	0x3c109022	0.008823426
39	0x3ca12df3	0.01967523
40	0x3d6c48fa	0.057686783
41	0x3d6273e8	0.055286318
42	0xbd21e729	-0.039527092
43	0x3d4bc55b	0.04974876
44	0xbd33ac48	-0.043865472
45	0x3d9a8523	0.07544925
46	0xbd25d5b2	-0.040487
47	0xbd824007	-0.063598685
48	0x3d420138	0.047364444
49	0xbbd1adbb	-0.006398884
50	0xbdea2ffb	-0.11434933
51	0x3d627373	0.055285882
52	0xbd13b224	-0.03605856
53	0x3d21bb25	0.039485116
54	0x3d08ee53	0.03343041
55	0xbc48f5a2	-0.012265595
56	0xbc299ad5	-0.010351856
57	0x3ccb283f	0.024799464
58	0xbd22212a	-0.03958241
59	0xbc3abc51	-0.011397437
60	0x3c839850	0.01606384
61	0x3bc689c5	0.006058904
62	0xbc093987	-0.008375532
63	0xbd0bdddc	-0.03414713

scale2.1.1.running_mean f4 [64]
0	0xbf5e811e	-0.8691577
1	0xbfb1b33b	-1.3882822
2	0xc020de3d	-2.5135643
3	0xbf739586	-0.9515003
4	0xc02acc5f	-2.6687238
5	0xbf794960	-0.97377586
6	0xc0090e2d	-2.1414902
7	0xc05c6a30	-3.4439812
8	0xc02aa672	-2.666409
9	0xc01d83a1	-2.461159
10	0xc032b812	-2.7924848
11	0xc017e3ee	-2.3732867
12	0x4036385b	2.8471897
13	0xbf3ea4d2	-0.74470246
14	0x3f8b87ca	1.0900815
15	0xbfd26afa	-1.6438897
16	0xc0417894	-3.0229845
17	0xc02e3639	-2.7220595
18	0xc01e35cc	-2.4720335
19	0xc07d313a	-3.9561296
20	0xc072e01c	-3.7949286
21	0xbf8c196f	-1.0945262
22	0xc091f128	-4.560688
23	0xc0246711	-2.5687907
24	0xc05230d1	-3.2842295
25	0xbff9a7d0	-1.9504337
26	0x40393bec	2.8942823
27	0xc04c11a7	-3.1885774
28	0xbffad778	-1.9597006
29	0xc03689b8	-2.8521557
30	0xbfa3183a	-1.2741768
31	0xc05cbdbd	-3.4490807
32	0xc0132b2a	-2.2995095
33	0xbeecd4b8	-0.46256042
34	0xc0716940	-3.772049
35	0x3fc6cb1b	1.5530733
36	0xbfc8da6f	-1.5691661
37	0xbfa600fa	-1.2969048
38	0xc062b197	-3.5420892
39	0xbf99e18d	-1.2021958
40	0x3d92442a	0.071419075
41	0xc0625c88	-3.5368977
42	0xc03d3000	-2.9560547
43	0x3e8d6698	0.27617335
44	0xc0828e35	-4.0798593
45	0xc06decb4	-3.7175722
46	0xc0ad81f4	-5.4221134
47	0xc08be402	-4.371583
48	0xc0339fc9	-2.8066275
49	0x40525202	3.2862554
50	0xc04e6d1c	-3.2254095
51	0x3f41baf3	0.75675887
52	0xc08da690	-4.4265823
53	0xbfaec048	-1.365243
54	0xc05783a3	-3.3674095
55	0xc06ead03	-3.7293098
56	0xbf93a6e5	-1.1535307
57	0x3edc2008	0.42993188
58	0xc0555a60	-3.333641
59	0xc0591734	-3.3920412
60	0xbfe84812	-1.8146994
61	0xbd224a29	-0.039621506
62	0xc08b0a84	-4.3450336
63	0xbf8a34c6	-1.0797355

scale2.1.1.running_var f4 [64]
0	0x40f32ad1	7.5989766
1	0x400fd895	2.247594
2	0x40ab1295	5.3460183
3	0x3fd6bf83	1.6777195
4	0x405252b6	3.2862983
5	0x40253932	2.581616
6	0x407b7f45	3.929643
7	0x40b92d97	5.786815
8	0x40019624	2.0247889
9	0x408737df	4.22557
10	0x404d7cb5	3.2107365
11	0x3fdee335	1.7413088
12	0x3ff3941e	1.9029577
13	0x4010c13a	2.2617936
14	0x3f9e6ef1	1.2377607
15	0x40050775	2.0785801
16	0x405ac191	3.4180644
17	0x4001f9bb	2.0308673
18	0x403ed5a8	2.9817905
19	0x409ff522	4.9986734
20	0x406f34ca	3.737597
21	0x3fe86e05	1.8158575
22	0x40a7277f	5.2235713
23	0x3fae4619	1.3615142
24	0x4095e04f	4.6836314
25	0x3f9c5f2a	1.2216542
26	0x4018c4a2	2.3870015
27	0x40686bc0	3.6315765
28	0x3fbaff57	1.4609174
29	0x3fdc2f1b	1.7201875
30	0x400deb82	2.2174993
31	0x40afb283	5.490541
32	0x407a5585	3.9114697
33	0x3f94f6b2	1.1637785
34	0x409360d6	4.605571
35	0x408a62c4	4.3245564
36	0x40108d45	2.2586224
37	0x3fdf1780	1.7429047
38	0x40cbc8be	6.3682547
39	0x402e8203	2.7266853
40	0x3facf830	1.3513241
41	0x3fff30cd	1.9936768
42	0x407a4768	3.9106083
43	0x3f9972be	1.1988142
44	0x408acd83	4.337587
45	0x3ffe3d2f	1.9862422
46	0x40faef3b	7.841703
47	0x40bb8b2e	5.8607397
48	0x4020ebc7	2.5143907
49	0x4014365a	2.3158174
50	0x40b8f2f0	5.7796555
51	0x3fb23a98	1.3924131
52	0x40b19393	5.5492644
53	0x402bc893	2.684117
54	0x405c2ea9	3.440348
55	0x409a891e	4.829238
56	0x4017573d	2.3646996
57	0x400c1417	2.1887262
58	0x3fb4225e	1.4072988
59	0x40661661	3.595116
60	0x400e5e64	2.2245111
61	0x401575e9	2.3353217
62	0x40043c6e	2.0661883
63	0x3f9c93b9	1.2232581

scale2.2.0.weight f4 [64, 64, 3, 3]
0	0x3bf69668	0.007525254
1	0x3c2db1f9	0.010601514
2	0xbb95b401	-0.0045685773
3	0xbc169047	-0.009189672
4	0x3accafd7	0.0015616369
5	0xbbe15726	-0.006876844
6	0xbb181572	-0.0023206142
7	0xbac50e57	-0.0015034181
8	0xbbbdd472	-0.0057931477
9	0x3978d5a5	0.00023730712
10	0x3c0e0618	0.008668445
11	0x3c1a714b	0.009426425
12	0x3d27a1e8	0.04092589
13	0x3d19014d	0.037354756
14	0x3d054461	0.032535914
15	0x3bc8e739	0.0061310795
16	0xbc54b747	-0.01298315
17	0xbca141b8	-0.019684657
18	0x3ca45604	0.020060547
19	0x3cbeb8ca	0.023281474
20	0x3d015694	0.031576708
21	0x3c6f9c63	0.014624688
22	0x3c3d4bae	0.011553688
23	0x3c68fac8	0.014219947
24	0xb7770260	-1.47229e-05
25	0x3adc8385	0.0016823864
26	0xbbf6a36d	-0.007526806
27	0x3ac657cc	0.0015132367
28	0xbb90b4b2	-0.004416072
29	0xbc5d8a02	-0.013521673
30	0x3d1b29f8	0.03788182
31	0x3cc0b48d	0.023523593
32	0xbb8cfb55	-0.004302422
33	0x3cedfdef	0.029051749
34	0x3bbc1b89	0.005740587
35	0xbcc58df5	-0.024115542
36	0xbc4669ba	-0.012110168
37	0xbbf88b35	-0.007584954
38	0xbbc9093d	-0.0061351345
39	0x3d19ce67	0.037550356
40	0x3d0e722e	0.03477686
41	0x3cd8056d	0.026369775
42	0x3cc58fd0	0.024116427
43	0x3c454a76	0.012041679
44	0x3bb583d9	0.005539399
45	0x3d3b0670	0.045660436
46	0x3d754371	0.05987877
47	0x3d0be246	0.034151338
48	0x3d36cf4f	0.0446313
49	0x3d3c9f1c	0.046050176
50	0x3d17142f	0.036884483
51	0xbc67f008	-0.014156349
52	0xbbffdee9	-0.0078085554
53	0xbcc85fc4	-0.024459727
54	0x3aafaf1f	0.0013403631
55	0x3bf0f830	0.007353805
56	0x3ba09a66	0.004901218
57	0x3c297ada	0.0103442315
58	0x3c65aa2b	0.014017622
59	0x3c40b147	0.011761016
60	0xbb34f6a9	-0.0027612841
61	0xbb3c0d15	-0.002869432
62	0xbbe97b40	-0.0071252882
63	0x3c73e811	0.014886872
64	0x3cfd9834	0.030956365
65	0x3ca8e5fa	0.020617474
66	0x3d21e3ed	0.039524008
67	0x3d3dc951	0.04633457
68	0x3cc9a465	0.024614522
69	0xbaa57384	-0.0012622927
70	0xbc9595bd	-0.018259877
71	0xbd484e16	-0.048902594
72	0xbb36bd68	-0.002788389
73	0x3bbf4ff9	0.005838391
74	0xba8e0b8f	-0.0010837185
75	0xbc5db759	-0.013532483
76	0xbba810b6	-0.005128945
77	0xbc234882	-0.009966018
78	0xbcb620c8	-0.022232428
79	0xbc30bc72	-0.010787116
80	0xbc9240cc	-0.017853163
81	0x3d007856	0.03136476
82	0x3d4be753	0.049781155
83	0x3cac9fcb	0.021072289
84	0x3cbd783c	0.023128621
85	0x3d035bad	0.03206985
86	0x3b814ece	0.003946162
87	0xbc64f5d6	-0.0139746275
88	0xbc4f020e	-0.012634767
89	0xbd162d72	-0.036664434
90	0x3d253d7d	0.040341843
91	0x3d8b584f	0.06803953
92	0x3d404190	0.046937525
93	0x3cafba04	0.021451004
94	0x3cfeba60	0.03109473
95	0x3c70acaa	0.014689604
96	0xbd29fa06	-0.041498207
97	0xbd04e74a	-0.032447137
98	0xbd51899a	-0.051156618
99	0x3c2df46b	0.010617356
100	0x3cc3037b	0.02380537
101	0x3c2629a6	0.010141766
102	0x3ce1e40f	0.027574567
103	0x3d0d4eae	0.034498863
104	0x3cd0d3ec	0.025491677
105	0xbcdb3405	-0.026758203
106	0xbd09c217	-0.033632364
107	0xbd27ac48	-0.040935785
108	0xbc05f494	-0.008175988
109	0xbbf6c01e	-0.0075302264
110	0x39ed2fef	0.00045239876
111	0xbc8e0c2a	-0.017339785
112	0xbc6bfc2a	-0.014403382
113	0x3a0b38dc	0.0005310902
114	0xbbf00f0c	-0.0073260125
115	0x3ae47757	0.0017430586
116	0x3c09c421	0.008408577
117	0x3c1d4213	0.009598273
118	0x3c4c7f01	0.012481452
119	0x3c5ac2c0	0.013352096
120	0x3ca7de26	0.02049167
121	0x3c0ae6f7	0.008477918
122	0x3c285a67	0.01027546
123	0x3cec63e7	0.02885623
124	0x3c538ecc	0.012912463
125	0x3c7c26ea	0.015390137
126	0xbcc1408d	-0.02359035
127	0xb9b0bc7a	-0.00033709762
128	0xb91680de	-0.00014353122
129	0xbb916c1e	-0.0044379374
130	0x3ccd82d3	0.025086796
131	0x3ce173f4	0.027521111
132	0xbba27262	-0.004957483
133	0x3c3e89ae	0.011629505
134	0x3bd449da	0.0064785304
135	0x3cb9bcd0	0.02267304
136	0x3d338b4f	0.043834027
137	0x3c3b03d6	0.011414489
138	0x3d083980	0.03325796
139	0x3d0dd43d	0.034626234
140	0x3ba657d0	0.005076386
141	0xbc4429b4	-0.011972833
142	0xbcbd2a3c	-0.023091428
143	0xbd48c844	-0.049019113
144	0xbbfdbb49	-0.0077432734
145	0x3b3f2270	0.0029164813
146	0x3bf4781e	0.007460608
147	0xbcc39d54	-0.02387873
148	0xbc274bc0	-0.010210931
149	0xbc0ecd30	-0.008715913
150	0xbd4dba0a	-0.05022625
151	0xbd30dc92	-0.043179102
152	0xbd2cf7d6	-0.042228542
153	0x3d362bfc	0.04447554
154	0x3d9fc8e6	0.0780199
155	0x3d6065a2	0.054784425
156	0x3af8c1a8	0.0018978612
157	0x3c9c54c1	0.019083383
158	0xbbd10255	-0.006378452
159	0xbd60ffbd	-0.05493139
160	0xbd5d4080	-0.05401659
161	0xbd9b4d70	-0.075831294
162	0x3d7b9786	0.0614238
163	0x3dc03314	0.093847424
164	0x3d25c798	0.04047355
165	0x3d3c10b3	0.045914363
166	0x3d652885	0.055946846
167	0x3c73d3ba	0.0148820225
168	0xbcadcd27	-0.021215988
169	0xbcb56608	-0.022143379
170	0xbd7f7160	-0.062363982
171	0x3d58fcb4	0.05297537
172	0x3d89e079	0.06732268
173	0x3d22e51d	0.03976928
174	0x3ca7bbc5	0.020475278
175	0x3c8d3f02	0.017241959
176	0xbc12c11d	-0.008957175
177	0xbd79bfb3	-0.060973834
178	0xbd6dfc05	-0.058101673
179	0xbdabcfb0	-0.083892226
180	0x3ca678f8	0.020321354
181	0x3ce40e9f	0.027839003
182	0x3ca3a54f	0.019976286
183	0xbbf81adb	-0.007571561
184	0x3aecc006	0.0018062599
185	0xbc2a3a2c	-0.010389846
186	0xbce0686a	-0.027393539
187	0xbd19c423	-0.037540566
188	0xbd4b3205	-0.04960825
189	0xbb84eda3	-0.004056649
190	0x3d054f03	0.032546055
191	0x3c999660	0.018748462
192	0x3b3e49c8	0.0029035676
193	0x3cdbafd2	0.026817236
194	0x3c190c8c	0.00934137
195	0xbcfc4065	-0.030792424
196	0xbcabb268	-0.020959094
197	0xbd05b560	-0.032643676
198	0x3c91d732	0.017802808
199	0x3c98840e	0.018617656
200	0xbc20a672	-0.009805309
201	0x3c9773d8	0.018487856
202	0x3cd482e4	0.02594132
203	0x3b73f283	0.0037223406
204	0x3b2d4721	0.0026440101
205	0x3a7c92d7	0.0009634918
206	0xbbe652d1	-0.0070289155
207	0x3ce3ffbd	0.027831906
208	0x3ce034fe	0.027369019
209	0x3b3667f8	0.0027832966
210	0x3cd6ede6	0.026236486
211	0x3cf2dd3d	0.02964651
212	0x3b1b87df	0.0023732109
213	0xbccd274e	-0.025043156
214	0xbccf816a	-0.025330264
215	0xbd1731fc	-0.036912903
216	0xbd0e7672	-0.034780927
217	0xbcb3e786	-0.021960985
218	0xbcc5dfca	-0.024154563
219	0xba87e308	-0.0010367343
220	0x3c1ecc73	0.009692299
221	0xbb309556	-0.002694448
222	0x3bb04799	0.005379629
223	0x3bbadabc	0.0057023447
224	0xbc2cded4	-0.010551173
225	0x3b5b3ae4	0.003345185
226	0x3c104b42	0.008807005
227	0xbb844e60	-0.0040376633
228	0x3c8e063e	0.01733696
229	0x3c075dee	0.008262141
230	0x3c15543b	0.00911432
231	0xbc197f03	-0.009368661
232	0xbcfcc651	-0.030856283
233	0xbca7b14e	-0.020470288
234	0xbd8242be	-0.06360386
235	0xbd88cf22	-0.066801324
236	0xbd113875	-0.035454232
237	0xbcd77776	-0.02630208
238	0xbcedd660	-0.029032886
239	0x3c64e77c	0.013971206
240	0x3d18d565	0.037312884
241	0x3d420c16	0.047374807
242	0x3d862394	0.06549755
243	0x3c7e4c4e	0.015521122
244	0x3d03ad9b	0.032147985
245	0x3b964506	0.004585865
246	0x3d02b156	0.031907402
247	0x3d2d3439	0.04228613
248	0x3c18e041	0.00933081
249	0xbbc30fd3	-0.005952814
250	0xbc1ffe85	-0.009765272
251	0xbd1bb873	-0.0380177
252	0x399ed30e	0.00030293356
253	0x3c16f48a	0.009213576
254	0xb94c7c93	-0.00019501364
255	0xbb6a5757	-0.0035757625

scale2.2.1.weight f4 [64]
0	0x3f8c9e7b	1.0985864
1	0x3f7f1f5d	0.9965723
2	0x3f846c54	1.0345559
3	0x3f84b0c2	1.0366442
4	0x3f7cd1de	0.9875773
5	0x3f80ac66	1.0052612
6	0x3f83a33f	1.0284194
7	0x3f8378c6	1.0271232
8	0x3f7e2cb9	0.9928699
9	0x3f818997	1.0120114
10	0x3f77f965	0.9686492
11	0x3f7c57ed	0.98571664
12	0x3f7ceb1d	0.98796254
13	0x3f801106	1.0005195
14	0x3f816d38	1.0111456
15	0x3f8a3736	1.0798099
16	0x3f7c2aef	0.9850301
17	0x3f8076c0	1.003624
18	0x3f8185ab	1.0118917
19	0x3f8080b7	1.0039281
20	0x3f84de53	1.0380348
21	0x3f791aab	0.9730632
22	0x3f80c668	1.0060549
23	0x3f80a875	1.0051409
24	0x3f876383	1.0577244
25	0x3f7f3e24	0.99704194
26	0x3f7a159b	0.9768922
27	0x3f8d11f7	1.1021107
28	0x3f78ab6c	0.9713657
29	0x3f8eb3d6	1.1148632
30	0x3f862ca5	1.0482374
31	0x3f80ea20	1.0071449
32	0x3f7a00f7	0.9765772
33	0x3f882e31	1.0639096
34	0x3f8a3c4b	1.079965
35	0x3f8289f2	1.0198348
36	0x3f8265f7	1.0187367
37	0x3f794591	0.97371775
38	0x3f902440	1.1261063
39	0x3f83c007	1.0292977
40	0x3f7e4f49	0.9933973
41	0x3f845442	1.0338213
42	0x3f80cc76	1.0062397
43	0x3f80e078	1.0068502
44	0x3f81f078	1.015151
45	0x3f7d94e8	0.9905534
46	0x3f7fde91	0.99948984
47	0x3f8aed22	1.0853617
48	0x3f8a9a39	1.0828315
49	0x3f821699	1.0163146
50	0x3f7d92ee	0.9905232
51	0x3f87ade4	1.0599942
52	0x3f88eb12	1.0696738
53	0x3f757e91	0.9589625
54	0x3f821697	1.0163144
55	0x3f81a7a5	1.0129286
56	0x3f811b77	1.0086507
57	0x3f84de34	1.0380311
58	0x3f80c4bd	1.006004
59	0x3f82e9ed	1.0227638
60	0x3f7efe4a	0.99606764
61	0x3f809198	1.0044432
62	0x3f942e57	1.1576642
63	0x3f851b5a	1.0398972

scale2.2.1.bias f4 [64]
0	0xbd1ac177	-0.03778216
1	0x3ca97fde	0.020690855
2	0x3d77aeea	0.060469545
3	0x3d3e37a4	0.04643978
4	0x3d5243a1	0.051334027
5	0x38ec3fa1	0.00011265209
6	0xbc2d3131	-0.01057081
7	0x3d1b2916	0.03788098
8	0x3d31b9da	0.043390132
9	0x3cf8d24a	0.030373711
10	0x3d860bbe	0.065452084
11	0x3d61a4e9	0.05508891
12	0xbca38b6a	-0.019963939
13	0xbaa07f96	-0.0012245055
14	0x3d8b6e7c	0.068081826
15	0x3da3b9b7	0.07994407
16	0x3d11fb81	0.035640243
17	0x3d874d7f	0.06606578
18	0x3d0c35d2	0.034231015
19	0x3c112a38	0.008860163
20	0xbd399ffa	-0.04531858
21	0x3d2664d9	0.04062352
22	0x3d6a5fce	0.057220273
23	0x3d23b14e	0.039964013
24	0x3d15c2fb	0.0365629
25	0xbd574c6e	-0.052563123
26	0xbb8144fd	-0.0039449916
27	0x3dcbd369	0.09952433
28	0x3cca254d	0.02467599
29	0x3db7e79b	0.08979722
30	0x3d1433a4	0.03618206
31	0x3d555e1c	0.052091703
32	0xbc243216	-0.010021707
33	0x3b98ecb8	0.004666891
34	0x3c3c8a16	0.011507532
35	0xbbc3a001	-0.0059700017
36	0x3dc7dab8	0.09758514
37	0x3b9ba694	0.0047500823
38	0xbc7c6974	-0.015406001
39	0xbc04d022	-0.008106263
40	0x3db2d0cc	0.08731231
41	0xbd55a38f	-0.052157935
42	0xbd1745d6	-0.036931835
43	0x3dc16135	0.09442369
44	0x3dc87133	0.09787216
45	0xbb09ea93	-0.0021044358
46	0x3d2a73e6	0.041614436
47	0xbb8a63fb	-0.0042233444
48	0x3c979c06	0.018507015
49	0x3c28ebd6	0.010310134
50	0x3c71e4a8	0.014763989
51	0x3c9fc061	0.019500913
52	0x3dfa42fe	0.12219809
53	0xbd0ddf0a	-0.034636535
54	0x3d927a1a	0.07152195
55	0x3dc27a72	0.09496011
56	0x3d3848f2	0.04499144
57	0x3d9299c3	0.07158234
58	0xbb8a9f70	-0.004230432
59	0xbc2c7025	-0.010524784
60	0xbd578517	-0.05261716
61	0x3d21dade	0.03951537
62	0x3cc42a84	0.023946054
63	0xbc0422db	-0.008064951
